…
results_dict: {'metrics/precision(B)': 0.30768315574119276, 'metrics/recall(B)': 0.2536571237049797, 'metrics/mAP50(B)': 0.2294762607358484, 'metrics/mAP50-95(B)': 0.12988693085099823, 'fitness': 0.13984586383948325}
save_dir: WindowsPath('ultralytics/val')
speed: {'preprocess': 0.4956321994753649, 'inference': 2.5733282966335325, 'loss': 0.0018246852568466296, 'postprocess': 5.1436946339850875}
Speed: 0.5ms preprocess, 2.6ms inference, 0.0ms loss, 5.1ms postprocess per image
Results saved to [1multralytics\val
                   from  n    params  module                                       arguments
  0                  -1  1       464  ultralytics.nn.modules.conv.Conv             [3, 16, 3, 2]
  1                  -1  1      4672  ultralytics.nn.modules.conv.Conv             [16, 32, 3, 2]
  2                  -1  1      7360  ultralytics.nn.modules.block.C2f             [32, 32, 1, True]
  3                  -1  1     18560  ultralytics.nn.modules.conv.Conv             [32, 64, 3, 2]
  4                  -1  2     49664  ultralytics.nn.modules.block.C2f             [64, 64, 2, True]
  5                  -1  1     73984  ultralytics.nn.modules.conv.Conv             [64, 128, 3, 2]
  6                  -1  2    197632  ultralytics.nn.modules.block.C2f             [128, 128, 2, True]
  7                  -1  1    295424  ultralytics.nn.modules.conv.Conv             [128, 256, 3, 2]
  8                  -1  1    460288  ultralytics.nn.modules.block.C2f             [256, 256, 1, True]
  9                  -1  1    164608  ultralytics.nn.modules.block.SPPF            [256, 256, 5]
 10                  -1  1         0  torch.nn.modules.upsampling.Upsample         [None, 2, 'nearest']
 11             [-1, 6]  1         0  ultralytics.nn.modules.conv.Concat           [1]
 12                  -1  1    148224  ultralytics.nn.modules.block.C2f             [384, 128, 1]
 13                  -1  1         0  torch.nn.modules.upsampling.Upsample         [None, 2, 'nearest']
 14             [-1, 4]  1         0  ultralytics.nn.modules.conv.Concat           [1]
 15                  -1  1     37248  ultralytics.nn.modules.block.C2f             [192, 64, 1]
 16                  -1  1     36992  ultralytics.nn.modules.conv.Conv             [64, 64, 3, 2]
 17            [-1, 12]  1         0  ultralytics.nn.modules.conv.Concat           [1]
 18                  -1  1    123648  ultralytics.nn.modules.block.C2f             [192, 128, 1]
 19                  -1  1    147712  ultralytics.nn.modules.conv.Conv             [128, 128, 3, 2]
 20             [-1, 9]  1         0  ultralytics.nn.modules.conv.Concat           [1]
 21                  -1  1    493056  ultralytics.nn.modules.block.C2f             [384, 256, 1]
 22        [15, 18, 21]  1    897664  ultralytics.nn.modules.head.Detect           [80, [64, 128, 256]]
YOLOv8n summary: 225 layers, 3157200 parameters, 3157184 gradients, 8.9 GFLOPs
YOLOv8n summary (fused): 168 layers, 3151904 parameters, 3151888 gradients, 8.7 GFLOPs
YOLOv8n summary (fused): 168 layers, 3151904 parameters, 3151888 gradients, 8.7 GFLOPs
[34m[1mPyTorch:[39m[22m starting from 'yolov8n.yaml' with input shape (1, 3, 640, 640) BCHW and output shape(s) (1, 84, 8400) (0.0 MB)
…
